checkpoint.pth (torch_old, 78282 bytes, 8 tensors)

fc1.weight f4 [64, 37]
00000000: 3701 6abd abb6 59bd 412e 42be cf68 a8bd
00000010: 830c 8bbe 6d53 64bc ca6c 99be 0bbd 933e
00000020: d17f d8ba b45a 31be 6de8 d0bc 3ae9 a2be
00000030: 0120 0e3e 9277 97be 5cae 6cbe 5e6e 403e
00000040: 0674 bcbd 6f19 15bd 2d6e 84be 8263 a6bd
00000050: 6873 39be 8692 383e ed8d 8aba 324a 723e
00000060: 3eb2 06bd 6482 9b3d 04f6 c1bd 9dd9 9abd
00000070: 222b b9be 3c81 8bbe 33e3 6f3c bb4b 493e
00000080: 1e03 79be e412 28be 66bb c2bc fb6a 93bd
00000090: 7198 89bd ca4c 8c3e b37a 113e 7966 513d
000000a0: 6580 bfbd 16ee 9dbe f822 8f3e 5a3c 93be
000000b0: 5772 7abe 6b41 febe 01f0 9ebf 8d0e 9b3c
000000c0: 42db d3ba 8f49 cb3d db2d 3f3e f7c2 893e
000000d0: 3c65 d63d e0dd 213e a3b8 b93d f27b f83c
000000e0: eb4e 1bbc ad5b 91bd 4ca7 debd b674 0abe
000000f0: 1acd ea3d 7835 833e f900 5cbd 9b7f b13d
00000100: 9f2d f63c 085e 233d 9c21 b9bb ab55 643d
00000110: 8418 533e 2bf4 8d3d b9c7 9d3d 97ff 9a3d
00000120: d262 803b 091f a8b9 b442 063e e029 7b3d
00000130: 747a 263e f2c7 cdbe 712d 04be f3c6 21be
00000140: da3d debe 78aa 953e 9410 483e 8609 44be
00000150: b00c b53d b848 2ebe 48b4 abbd d493 303e
00000160: d95a b23d eef8 7fbe 0a6c 25be d429 8b3e
00000170: 070c 363e a0a6 aebe 229b 993c 869a 6bbe
00000180: fc6a 7a3d b000 b4bd 8d10 443d 35f6 93bd
00000190: 0bb5 1b3d ccab 643e 79ca 05be b9b3 763d
000001a0: 6788 34be b911 1f3e 3e5b 6abe e1e6 46be
000001b0: 3837 863d ca7c 013e 583f babc 3856 913e
000001c0: dcb0 0bbe 611e 0c3d d3a0 aebd 455e 34bf
000001d0: aadd 41bd c6b4 0cbe b1e1 89bd ba1a c13d
000001e0: 344b cf3c b80f 923d 3d3a b8bd 4e2f 5f3d
000001f0: ec83 15be 9a94 10be 3907 d8bc a2f9 7ebe
00000200: 4c88 1e3d f35c 823b d886 003c 4b20 4f3d
00000210: a9ea 54bc 61b8 edbc 7479 833e dc44 843e
00000220: 234f fa3b 4b6f 01bd 99bf d8bc 8a7d 9e3e
00000230: 475e b33e 18b4 183e 5fe3 153e fccc c23d
00000240: 3398 14bf 6486 10bf 1b50 bf3d 9292 273b
00000250: 81b6 603c 065c 44be 70e0 0abe 8f83 b3be
00000260: 2364 a5bd a264 83be 0610 fc3d 576a edbd
00000270: ac2e 2ebd 900d 35bf 52c5 63be 1651 ad3d
00000280: 61fe 05bd 7ecd f8be 3799 04be 3b20 79be
00000290: 4975 e6bd 79e2 4a3d 89c9 6cbd e2c9 90be
000002a0: ed2a 08be 1556 dbbe ae3a 993e 6eca 54be
000002b0: ae52 123e ecf8 69be 5652 2bbe 86f7 463e
000002c0: 60a4 7bbe 29c3 cebe 0f73 c03d df3c dcbd
000002d0: 84bf 24bd f6ed 5fbe 4088 26bf 9158 293e
000002e0: 42dc 863d 371e e63c a0c4 94bd 6efc 4e3d
000002f0: 985d 663d 40c9 3b3e 7eb6 cb3e a800 41be
00000300: d4c6 d4be fa29 63be dd7e 6abf 69f8 84bc
00000310: ee65 27bc f480 373b 3bac aebd f354 1e3e
00000320: dcbc 603d 35ff ae3d 72ef 3dbd 2d36 b53c
00000330: 9b93 4fbd 9119 0b3e 6817 4a3d ff68 0f3e
00000340: 1bb0 e53d f250 2b3d eabb 083e 430b abbd
00000350: d939 85bd 58f5 09be 20c8 e6be 68ba 08bb
00000360: cc9a 26bd 96f3 913d a8bd d33d 2cbe 543e
00000370: d85e 20bd 619b c03c 7be0 94bc e055 0ebe
00000380: eac5 223e cff8 89be 43d4 14bf 13ea a9bd
00000390: 53e7 29bd 14df 7cbd 6db1 d83d 008f 9c3d
000003a0: cde9 433e 7375 2fbd 4d13 48be 3cea e23d
000003b0: 291f 27bd b40b 93bd 67a8 293d 5cef 9fbd
000003c0: 277a bebe 1353 883d 238b 0bbd 5664 6dbd
000003d0: b805 0c3e 9250 babe c3b3 a33e 59dd 20be
000003e0: cb9f 243e 1f95 9fbd 5b9f d0be 3452 043c
000003f0: d3fe 7a3e 45cb e33d 27e6 b8be 330d fbbe
-0.057130065 -0.05315272 -0.18962957 -0.08223116 -0.27157983 -0.013935906 -0.29965812 0.28855166
-0.0016517584 -0.17319757 -0.025501454 -0.31818563 0.13879396 -0.29583412 -0.23113388 0.18792102
-0.09201817 -0.03640121 -0.25865307 -0.08124448 -0.1811043 0.18024644 -0.0010570862 0.23661116
-0.03288483 0.075932294 -0.09470752 -0.07561038 -0.3616572 -0.27247036 0.014641571 0.19657795
-0.24317595 -0.16413456 -0.023771 -0.07198139 -0.06718529 0.27402335 0.14206962 0.051123116
-0.09350661 -0.30845708 0.27956367 -0.28756982 -0.2445768 -0.49659285 -1.2416993 0.018927837
-0.0016163366 0.099261396 0.18669836 0.2690656 0.10468528 0.15807295 0.0906842 0.03033254
-0.009479265 -0.07097564 -0.10871753 -0.13521084 0.11464901 0.2562673 -0.053711865 0.08666917
0.03005105 0.039884597 -0.0056497585 0.05574576 0.2061482 0.06931337 0.0770411 0.07568281
0.0039180303 -0.0003206658 0.13111383 0.061319232 0.1625765 -0.4019161 -0.1290796 -0.1579855
-0.43406564 0.2923162 0.19537574 -0.19144258 0.088403106 -0.17019928 -0.08383995 0.17243892
0.08708734 -0.24997303 -0.16154495 0.2718035 0.17778026 -0.341115 0.01875073 -0.23008165
0.061137185 -0.08789194 0.047867347 -0.07224695 0.038014453 0.2233116 -0.13065518 0.06022999
-0.17630158 0.15534104 -0.22886369 -0.19424011 0.06553501 0.1264526 -0.022735283 0.28386092
-0.13641685 0.03420866 -0.085267685 -0.70456344 -0.047330536 -0.13740835 -0.067325 0.09428926
0.025304414 0.07131904 -0.08995483 0.054488473 -0.14601105 -0.14119187 -0.026370632 -0.24899915
0.0387042 0.0039783656 0.007844649 0.050567906 -0.0129954005 -0.029018583 0.256786 0.25833786
0.0076388284 -0.031600278 -0.026458548 0.30955154 0.35032865 0.1491245 0.14637516 0.09511754
-0.5804474 -0.56455064 0.09341451 0.002556954 0.013715387 -0.19175729 -0.13562179 -0.3506131
-0.0807574 -0.25662714 0.12307744 -0.11592548 -0.04252498 -0.7072382 -0.2224324 0.084627315
-0.032713298 -0.48594278 -0.12949072 -0.24328701 -0.11252839 0.049532387 -0.057809386 -0.28279024
-0.13297625 -0.42839113 0.29927582 -0.20780346 0.14289352 -0.22848862 -0.16730627 0.1943036
-0.24574423 -0.4038327 0.09396946 -0.10753798 -0.040221706 -0.21868119 -0.6505165 0.16537692
0.065849796 0.02809058 -0.07264066 0.050533704 0.0562416 0.1833849 0.39787668 -0.18847907
-0.41557944 -0.22183982 -0.9159983 -0.016231732 -0.010217173 0.0028000446 -0.08528944 0.15462093
0.05486761 0.08544771 -0.04637093 0.02212056 -0.050677877 0.13583972 0.04933873 0.14004897
0.1121523 0.041825242 0.13352934 -0.083517574 -0.06505174 -0.13472497 -0.45074558 -0.002086306
-0.04067497 0.071265385 0.103389084 0.2077567 -0.03915295 0.02351159 -0.018173447 -0.13899946
0.1589581 -0.26947638 -0.58136386 -0.08296599 -0.041480374 -0.06173618 0.10580716 0.076444626
0.19132157 -0.042836618 -0.19538613 0.11079833 -0.0408012 -0.071799666 0.041420367 -0.07809326
-0.3720257 0.0665647 -0.034068238 -0.057957016 0.13674057 -0.36389595 0.31973085 -0.15709437
0.16076581 -0.077921145 -0.4074658 0.008076239 0.2451127 0.11122755 -0.36113092 -0.49033508

fc1.bias f4 [64]
00000000: 745b 073e b0a9 813d 287b e8bd 70de 3ebd
00000010: 7b86 1d3e 7b14 003d c13b a0bd 1668 163d
00000020: 4015 0a3d 508d fbbd 9159 9d3d c392 2b3e
00000030: 00a9 0b3e 2091 9b3d 7d6c 41bd 2487 24be
00000040: 44fd 7c3d 792e 87bd 5bce 903d 9d86 43be
00000050: 386a 61be 2c2d d53d d670 c2bd c213 05be
00000060: bd52 0abe 6b05 0d3e b041 2ebd 1217 2fbd
00000070: 7cdc fc3d bfe0 143e 0ef6 96bd 74e3 d5bd
00000080: 1097 4b3e 99b1 90bd bf51 07be 6ea5 b23d
00000090: aace 21bd e380 113d d862 b8bd 32f6 2fbe
000000a0: e9b6 09bd e547 f7bc f800 2ebd 9bb8 303e
000000b0: 31c6 b63c c8e5 85bd cd8e 8ebc ed5f e2bd
000000c0: e708 04bd acbc 593c b325 12be 1ea7 c13d
000000d0: 6295 ddbc 9898 22be c596 30be 6c25 b23c
000000e0: 9824 c13c 5697 c3bc 34ed b4bd 64ba a2bd
000000f0: 69f4 b93d bd58 773d 748f a23d 8d05 773d
0.1321848 0.063311934 -0.11351615 -0.04659885 0.15383331 0.03126953 -0.07823897 0.036720358
0.03371167 -0.122828126 0.07683099 0.16755204 0.13638687 0.0759604 -0.047222603 -0.16067177
0.06176497 -0.06600661 0.07070609 -0.1909432 -0.22013175 0.104090065 -0.09494178 -0.12995818
-0.13508125 0.13771598 -0.042543113 -0.04274661 0.123467416 0.14538859 -0.0737115 -0.10443774
0.19881845 -0.07065124 -0.13214777 0.087229595 -0.03950373 0.035523307 -0.09003228 -0.1718376
-0.033621702 -0.03018565 -0.042481393 0.17257921 0.022311302 -0.06537968 -0.017402077 -0.11053453
-0.032235052 0.013289612 -0.14272194 0.09455703 -0.02704877 -0.15878522 -0.17245014 0.02174636
0.02357702 -0.023875874 -0.088343054 -0.079457074 0.09079821 0.06038736 0.07937518 0.060308028

fc2.weight f4 [128, 64]
00000000: 1136 09bf 1630 513e a10c 903e f283 1f3e
00000010: f9e4 be3e e968 d3bc bb82 73be 05e4 8abe
00000020: ae8d e1bd 6ff3 dfbb e9fe 21bc fed9 3abe
00000030: cd67 01be 5519 433e 1903 6cbd d0ba 7fbe
00000040: 101e 83be 67c2 bfbd 3761 a03d 0b94 d7bd
00000050: 878e 053e c5a8 1cbf 2098 133e 3f44 a0be
00000060: f639 e5bd 03ea 86be 1c98 d0bc 4a45 2ebc
00000070: cfab 293e 0fbe adbd 8f28 bd3d 9b76 57bb
00000080: 6f78 f63d b71c f53c fdb5 1abf ba9c 88be
00000090: cc26 50bd 8317 c93e 78e6 343e b955 7cbd
000000a0: cc16 14bf 174c 4abe 40f2 233e 469e c3be
000000b0: e8f1 d1bd 5aa9 04be d317 00be 52fe 6dbe
000000c0: be4c 053e c51a 3ebe 021c d2bd b8c4 8abe
000000d0: cc83 a5be ef86 b9be ae03 723d bb26 7abd
000000e0: 68e8 653d 09d6 6ebe c218 04bf 15d2 6abd
000000f0: b655 a0be 214f 1a3e 7947 89be 5e42 17be
00000100: 52ea e2bc a84b 2c3e a329 02be cdd1 943e
00000110: 3420 b03d 05c6 3a3d 7fdf 33be 97bb d5bc
00000120: 28a0 b4bd cebc ef3c 2b2b a13c 13f3 583e
00000130: bbff 993c c773 cb3b 13fc 06be aa44 8fbd
00000140: bf40 5b3d 1efe 3b3e dc50 a2be dec2 48be
00000150: 7733 ea3d 9c26 bcbe 9e8d b9be 1b73 c2bd
00000160: 0de5 1bbd 2969 b7bd e687 d6be 545e c5bd
00000170: e02c d83c 116e 1abe 0309 993e 8606 d4be
00000180: 82cf 553d b6bc a93d 3faa f33d d1f3 943d
00000190: eafb 87bd 931f b43d ed9b 91bc 5161 70be
000001a0: 55d3 95be 7f3a e63c aca4 353e 2d2f 083e
000001b0: 7931 81be 32ba a4be 7dc7 503d 2825 863c
000001c0: 6fa7 1abd e6d0 babe a83e 843e 6135 d83d
000001d0: 7d79 86be 6004 84bd 4cf6 d5bd 860a 0a3e
000001e0: 60c6 003e 6a4e bbbc 6362 1e3e d4c4 753e
000001f0: 69c6 82bd 0cce 753c 879f a7be 0682 febd
00000200: d780 2abe c42c 79bd f61c 4b3e 5dd6 2ebd
00000210: 9440 b93d dc46 07be 21f1 e2be cd45 a2bc
00000220: fa85 aa3d 2e4c dcbe b3bb d23c 3fc2 bc3d
00000230: c1f0 3d3d 69c6 1c3e 3828 0a3e 0a05 513d
00000240: 8d4d 1bbf c3ab 2dbe 25d1 0e3e e7fc bebd
00000250: 3d3e b7bc 1f20 6a3e d274 5f3c c5a4 c0be
00000260: a065 59be d651 733c ad3a d6bd 6af0 6bbd
00000270: 5259 a73c 6e9d a4bd e123 c63e ce83 f5bd
00000280: ab0d 44bd 593c b6ba 2335 71be 1b22 e33d
00000290: fd33 12bd 82be 863e b964 45bd b491 0e3e
000002a0: 4adc 243d 8bd8 20be 4b69 04be e820 0dbf
000002b0: c269 433d a7d7 dabd b724 e83d 5892 8dbb
000002c0: e8f8 bdbc 9046 60be b672 9fbe 20ad df3d
000002d0: 8b1e 06bf daa7 2bbe 9e42 16be 0b6f 9abe
000002e0: 28ff 1cbe 6dec e9be d0df 38bd c80c 5e3b
000002f0: 2c9e d0bb a9ed 0f3e a286 f23d fc7e f13c
00000300: 6976 cdbd 410d a0be 5757 0b3e f73d 8cbe
00000310: b48b e53d 9f35 64bd dd12 503e 0eff e13d
00000320: 3452 7d3c 93d2 623d adec 2c3d c99f d5bd
00000330: 6d3b 0ebe 573a a73e c4d5 ccbd 037c 783d
00000340: 21dc b9bc 9085 273c 018f a03c 739f 253d
00000350: 447c a5bd 5165 12bd a6fd 9dbd 6b77 c73d
00000360: 3500 8fbd a16a c33c 01b7 603e 828b c2bc
00000370: c85d 183e b569 46be 70f0 aebd 0c6f 2e3c
00000380: c495 05be fa62 b0bd 405d c53d e827 b53d
00000390: f099 b6be 84a4 4d3e 7e53 8f3e 1236 f23d
000003a0: aa9e d23d 3503 483e 9c0e 6a3d 67fc 40be
000003b0: 13a9 21be 8ae8 44bb ecf6 fe3b d41e d1bc
000003c0: d6d6 383d 4714 bb3d fa09 5c3d 77d7 403d
000003d0: c30a bf3d 0a3e 09be 1bf3 5cbd 0d38 4e3e
000003e0: 4521 bd3c f319 0dbe 431a f63c 647b 843e
000003f0: f74a 09be 63a5 fdbd f388 cebd d829 babd
-0.53598124 0.204285 0.28134635 0.15577677 0.37284067 -0.025806861 -0.23780338 -0.2712709
-0.110133514 -0.0068344395 -0.0098874355 -0.1824722 -0.12637253 0.19052632 -0.05762014 -0.24973607
-0.25608873 -0.09363251 0.07831042 -0.10526284 0.13042651 -0.6119502 0.144135 -0.31302068
-0.11192696 -0.26350412 -0.025463156 -0.010636637 0.16569446 -0.084835164 0.092362516 -0.003287709
0.1203469 0.029920919 -0.6043394 -0.26682073 -0.05081825 0.3927575 0.17666042 -0.06160519
-0.57847285 -0.19755588 0.1601038 -0.3820669 -0.10251218 -0.12955227 -0.12509088 -0.23241547
0.13017556 -0.185649 -0.10259248 -0.2710321 -0.32327116 -0.3623576 0.05908554 -0.061072093
0.056129843 -0.23323835 -0.5160028 -0.057329256 -0.31315392 0.15069248 -0.26812342 -0.14771411
-0.027699623 0.16825736 -0.12711196 0.29066315 0.08599892 0.045599002 -0.17565726 -0.026090426
-0.0881961 0.029264834 0.019673904 0.21186475 0.0187987 0.00620887 -0.13182096 -0.069955185
0.053528544 0.18358657 -0.31702316 -0.19605586 0.114355974 -0.36748207 -0.36240858 -0.09494611
-0.038060237 -0.089556046 -0.41900557 -0.09637132 0.026388586 -0.1508105 0.29889688 -0.41411227
0.052199848 0.08287947 0.11897706 0.07273067 -0.06639846 0.08795085 -0.017774547 -0.23474623
-0.29262796 0.028104065 0.17738599 0.13299246 -0.25233057 -0.32173306 0.050971497 0.01637514
-0.037757333 -0.36487502 0.25829053 0.10557056 -0.26264563 -0.06446147 -0.10447368 0.13480577
0.12575674 -0.02286454 0.15467219 0.24000865 -0.063855 0.015002739 -0.32738897 -0.12427144
-0.16650711 -0.060833707 0.19835266 -0.0426849 0.090455204 -0.13210624 -0.44324592 -0.019808674
0.08326335 -0.4302687 0.025724268 0.09216737 0.04637218 0.15310062 0.13491905 0.051030196
-0.6066521 -0.16960053 0.1394697 -0.09325581 -0.022368545 0.22863816 0.013638692 -0.3762571
-0.21230173 0.014851054 -0.1046041 -0.057602324 0.020428333 -0.0803784 0.38699248 -0.119880304
-0.047864597 -0.0013903483 -0.23555426 0.110904895 -0.03569411 0.2631722 -0.04819176 0.13922769
0.040249147 -0.15707605 -0.12930791 -0.55128336 0.04770828 -0.10685664 0.11335128 -0.004320424
-0.023189977 -0.21901917 -0.31142205 0.10921693 -0.52390355 -0.16763249 -0.1467385 -0.30162844
-0.1533171 -0.4568819 -0.04513532 0.003388213 -0.006366512 0.14055504 0.118420854 0.029479496
-0.100323506 -0.31260112 0.13607536 -0.27391025 0.11208287 -0.0557152 0.20319696 0.11034976
0.015461493 0.0553766 0.0422179 -0.10430867 -0.13889857 0.32661697 -0.1000171 0.06066514
-0.022687973 0.010224715 0.01959944 0.040435266 -0.080803424 -0.035741154 -0.07714395 0.09739574
-0.06982461 0.023854556 0.2194481 -0.023748163 0.14879525 -0.19376262 -0.085419536 0.010646593
-0.13045412 -0.08612628 0.09636927 0.08845502 -0.3566432 0.20082289 0.27993387 0.11826719
0.10284169 0.19532473 0.05714284 -0.18846284 -0.15787153 -0.003004583 0.0077809 -0.025527395
0.04512676 0.09134727 0.053720452 0.047080483 0.093282245 -0.13402572 -0.05394278 0.20138569
0.023087153 -0.1377943 0.03004182 0.2587539 -0.13407503 -0.12385061 -0.10084715 -0.09090012

fc2.bias f4 [128]
00000000: 5ac0 c7bb 4032 c9bd b848 1aba f110 50bd
00000010: 17e4 983d a1d8 873d 45bc 573d 3f44 26bd
00000020: 2f34 d23d fe12 2c3e 4646 20bd 5ef1 14bd
00000030: 39c8 9ebd 8f34 2ebe 5ab9 ab3c 72ae a1bd
00000040: b277 983d 91f0 b03c 393e 9c3d de9f 3fbe
00000050: 46b9 8dbc 530a b53d 8061 dabd 4521 0bbd
00000060: 70e1 63bb 671a b6bd 168b a6bc 7e72 2e3d
00000070: bdbf 06bc da61 b13d 306b 48bd 95cc 513d
00000080: cb68 93bd 2483 103d b367 823d 4490 e43d
00000090: cbec 8fbd 5372 913d 9e16 10be 9bf5 b5bd
000000a0: d6a1 0c3d b463 0c3d 1343 fd3d bdbd 47bd
000000b0: cd61 753d 681a 9f3d 9bf1 d9bd df12 e5bd
000000c0: e60f df3c bad0 e3bd d8d2 6b3e fed1 9ebc
000000d0: 5a25 1a3e f17e b9bc 06d3 e0bc d510 833d
000000e0: f87d a4bd 3ef9 55bd b1b2 603d b24a a13b
000000f0: 851b 23bd 5869 933d f07f 5bbd 3ae5 1a3e
00000100: f25a e4bd fe8e dc3d 2672 223c 0349 5cbe
00000110: 6b24 88bc 133a 93bd 4b93 09bd 32a3 a73d
00000120: c9dd b8bc 9afc f43c 9bff f1bc c618 7fbb
00000130: 9252 313e 1686 ecbc 7649 b9bd f836 663c
00000140: 5c0d 09be b0fa 623d 90da 11bd eee6 293e
00000150: 5ef8 743d b7e1 98bc 9f36 823d 6b54 953c
00000160: 4c81 18be 6452 4c3d e462 403d f038 653d
00000170: 07fb 8dbc 2e95 61bc fe21 4ebe 528b 29bd
00000180: 8d3f 06be 1d80 233d 4f7d 633d 7f41 69bd
00000190: 589a 22be bf88 583e 9a6e a13c 4d5c 47bd
000001a0: e64b 71bc eee7 d43d 801c 4d3d dbc0 3fbc
000001b0: 1275 95bd f484 05bd 752d e9bd 4174 92bd
000001c0: d5b1 efbd 7c32 143e d6ee 8d3c d277 4e3d
000001d0: 27fe 79bd 3151 81bc cda0 7a3d 68d4 9a3d
000001e0: a420 58bd f2b5 8bbd 9483 233e 89d9 f9bd
000001f0: c38a 8cbd b86d cebd ee2d c83c 66f7 ffbd
-0.006095928 -0.098240376 -0.000588547 -0.050797407 0.0746538 0.066331156 0.052669782 -0.04059243
0.102638595 0.1680412 -0.039129518 -0.036363 -0.07753033 -0.17012237 0.020962406 -0.07894601
0.07444705 0.021599086 0.076290555 -0.18713328 -0.01730026 0.0883986 -0.10663128 -0.033967275
-0.0034771822 -0.088917546 -0.020329993 0.042589657 -0.008224425 0.08661242 -0.048930347 0.051220495
-0.07197722 0.035281315 0.06367435 0.11160329 -0.070275865 0.07101884 -0.14071128 -0.08884736
0.034334026 0.03427477 0.12366309 -0.048764933 0.059907723 0.077687085 -0.10641786 -0.1118524
0.02722926 -0.11123796 0.2302965 -0.019387241 0.15053311 -0.022643538 -0.027444374 0.06399695
-0.08031839 -0.05223965 0.054857913 0.0049222345 -0.039821167 0.07197827 -0.053588808 0.15126505
-0.11150159 0.10769461 0.00991491 -0.21512227 -0.016618928 -0.07188811 -0.033587735 0.08185424
-0.022566693 0.029905606 -0.029540827 -0.0038924678 0.17316654 -0.02887253 -0.09047215 0.0140511915
-0.13384002 0.055414855 -0.035608828 0.16591999 0.059807174 -0.018662317 0.063580744 0.01822873
-0.14893073 0.04988326 0.04696931 0.055962503 -0.017331613 -0.013768477 -0.20130154 -0.04139263
-0.1311018 0.0399171 0.055539425 -0.056947228 -0.1587919 0.21145914 0.01970606 -0.04867201
-0.014727568 0.103957996 0.050076008 -0.011703695 -0.0729772 -0.032597497 -0.11385623 -0.0715108
-0.11703841 0.14472383 0.0173258 0.05040724 -0.061033394 -0.015785785 0.061188508 0.075600445
-0.052765504 -0.06821813 0.15968162 -0.12199695 -0.06862404 -0.10079521 0.024435963 -0.124983594

fc3.weight f4 [64, 128]
00000000: 3931 d1bd 803a 333d c02d 313e 307e b03d
00000010: 9619 51be c81f a6bd 8ca2 61be fbac d1bd
00000020: 1503 e53c 19d9 5138 c71a 943e 1c48 e6bd
00000030: c93e b73d 8abe 6b3d a4ac 71bd 7cd0 32be
00000040: fa11 563d ad95 69be b216 83bd 0dbf debd
00000050: 03a1 b53d 2c34 10bd 1701 babc ee74 d13c
00000060: 75a6 e2bd a7f2 f33d e59b 29bd 2bd6 ea3c
00000070: 9007 0d3e 8ee1 013d 350b 20bd b71e a0bd
00000080: 5678 30bd bec4 be3e 35d7 463e 9536 8e3e
00000090: 56db 9d3d c2fc 8ebe 2b69 343d 5bbc cb3d
000000a0: df0b 1dbe d030 453e dd49 35be c193 e2bd
000000b0: 7b5a 0fbe b9b1 78bd d519 1abe 118f d73c
000000c0: fe95 4bbe cbb8 dcbd db42 ba3d 93d5 29be
000000d0: 99fd 703e 6110 b43d b540 613e f59a 793d
000000e0: 4858 d6bb d856 313e 4842 0d3e fc04 0dbe
000000f0: 9a8f 8d3e dbd0 4dbe f80e 2d3e 18ce 8ebd
00000100: 2f00 5cbd 47ca f8bd 9ea2 48bc c1b7 b0be
00000110: c56c 29be ad91 8fbc f97e 7f3d 3cde debd
00000120: 708b 823e 0098 a9be d025 583e 8e42 e73d
00000130: 8e9e 16be 98fb c7be 5cf8 4ebe 08b4 05be
00000140: eb7d 6abe 43b5 5b3e 6225 79bd ad36 0e3e
00000150: 23c9 83be e062 ba3d bc23 ba3d 38af 4d3c
00000160: c2d2 38be ea87 0dbf e76a 383e 2639 593e
00000170: 3fae f4bd fba8 07bc 1b01 d2be c0a2 f6bd
00000180: cf48 cebc 1439 973d 6c46 89be 008d 9dbe
00000190: 1330 823d 5226 3dbe bfca 283e 92b7 edbe
000001a0: 98cc d13d de58 02bf 1d03 223e b25f c3bd
000001b0: 2ea9 8fbe 96b8 cbba 104d 9bbe 97f2 dc3d
000001c0: e4f2 2d3e 3491 92be e717 0fbe bebb 79bc
000001d0: d8ca e6bd 4d69 98be 76d3 dc3e ed26 4ebe
000001e0: 810c 0fbe 6e71 4d3c b7eb 66be 5106 b93e
000001f0: f493 f83c 16b4 e63b ffd9 0abe a221 af3c
00000200: 0978 a8bd 3788 bfbd 4d13 683d f861 81bd
00000210: 71b3 32be 2986 493c da64 563d c093 ec3b
00000220: ba28 d23d bbb7 b63d b280 15be a90d bf3d
00000230: 74e4 1d3e 875e f73c 9cbf 6f3c 03ff 883d
00000240: e825 df3b 30c9 143e d3bc 6f3e d71e ea3b
00000250: b65a c53d 244b 89be 018a 78be 93b0 d6bb
00000260: af77 ecbd 7446 df3d 1ead 0cbe 5865 cdbd
00000270: db79 6b3e 0f52 3b3e 92c1 373d 4433 f33d
00000280: c57e 3a3d 1df5 5a3d 14cf c03c ac0f 8abd
00000290: 527c 2a3e 5413 9f3b 48e6 cbbd ec65 97be
000002a0: f47e f6bd 92bc 7a3b bfaf 24bb edf9 113d
000002b0: 7252 f2bd b8d9 0a3c 231c 473d dcc8 84bd
000002c0: 0051 e1bb 3305 5c3d d6c6 c6bc 174c 253e
000002d0: 4203 1c3d 5cb4 0f3d aee1 50bd 91e9 0e3e
000002e0: 8912 623d d924 363e d43e 143d 3e4c 913d
000002f0: aa2a b8bd 7965 0fbd 6b7b 7c3c 9bc0 243d
00000300: 83b2 703d 7f2e 253e 0798 a23d de97 6f3d
00000310: b085 83bd 76de 253d 91ad a33d 8bc3 f43e
00000320: 222d 9fbd 440c 80bc d314 a03d 9462 d53d
00000330: bcf0 823d 1caa 2cbd 97a2 66bd c1d4 cdbd
00000340: 89d0 8fbc 2432 8b3e b49c 123d 4d86 dbbc
00000350: 6ef0 efba f4a8 293e e990 6f3d c373 cfbd
00000360: b6c3 1dbd 6753 243e 5c1c 01be 805d 0d3e
00000370: a523 03be 84e5 613e 2319 7bbe 9210 c4bc
00000380: bf80 463d 13be 233d 41a9 a63d 005d 35bd
00000390: c43e a13d 3f26 0b3e 3140 93bc ed38 26bd
000003a0: ace6 d13d 8c0c 313d e20f 86bd 6329 2a3d
000003b0: d491 edbb 3425 e5bd 0874 1d3e 164d 913d
000003c0: 1558 743d a464 f53c 310e d0be 8aef 3d3e
000003d0: 8c3d 263d 4b60 803d e277 3ebd 63f3 a83b
000003e0: e307 813d 4b1e 133e 80d7 a13e 78d3 403d
000003f0: 44de 333d b064 51bd 436b b9bc bcda 563d
-0.102144666 0.04375696 0.17302608 0.08617818 -0.20419917 -0.081115305 -0.22034663 -0.102380715
0.027955571 5.003167e-05 0.2892668 -0.112442225 0.08947522 0.05755476 -0.059002534 -0.17462343
0.052263238 -0.22811003 -0.06400813 -0.10876284 0.08868601 -0.035206005 -0.022705598 0.025568452
-0.110669054 0.11911517 -0.04140844 0.028666576 0.13772416 0.031709246 -0.039073188 -0.078183584
-0.04308351 0.37259477 0.19418032 0.27776018 0.07707851 -0.27927214 0.04404561 0.09948035
-0.1533656 0.19256902 -0.17703958 -0.11063338 -0.1399936 -0.060716365 -0.15048917 0.026313337
-0.19881436 -0.10777434 0.09094783 -0.16585378 0.2353424 0.087921865 0.2199734 0.060938794
-0.0065412857 0.17318285 0.13794816 -0.13771433 0.27648622 -0.20099203 0.16900241 -0.06972903
-0.053711113 -0.12147956 -0.012245802 -0.34515193 -0.16545399 -0.017525518 0.06237695 -0.108822316
0.25497007 -0.3312378 0.21108174 0.11291991 -0.14708921 -0.39059138 -0.20211929 -0.13056958
-0.22899596 0.21455865 -0.060826667 0.13888045 -0.25739393 0.0910089 0.09088847 0.012553982
-0.18049148 -0.55285513 0.1800953 0.21213207 -0.11947297 -0.008280034 -0.41016468 -0.12042761
-0.025181202 0.07383934 -0.2681154 -0.30771637 0.06356826 -0.1847165 0.16483591 -0.46429116
0.10244101 -0.5091685 0.158215 -0.09539737 -0.2805876 -0.0015542682 -0.30332232 0.10788458
0.16987187 -0.28626406 -0.13973962 -0.015242515 -0.11269158 -0.29767838 0.43130082 -0.20132037
-0.13969614 0.012539251 -0.22550856 0.36137632 0.030343987 0.007040511 -0.13559721 0.021378342
-0.0822602 -0.09352153 0.05665903 -0.06317514 -0.17451264 0.012300053 0.052342273 0.0072197616
0.10261674 0.089217626 -0.14599875 0.09328777 0.15419179 0.030196441 0.014633086 0.066892646
0.0068099387 0.14529872 0.23411874 0.0071447897 0.09636442 -0.2681514 -0.24271394 -0.006551811
-0.11546265 0.1090211 -0.13737914 -0.100290954 0.22995703 0.18293022 0.044862337 0.118750125
0.045531053 0.053456414 0.023536243 -0.067412704 0.16648987 0.004854599 -0.09956032 -0.29569948
-0.12035933 0.003825937 -0.0025129167 0.03563874 -0.118321314 0.00847476 0.048610818 -0.064836234
-0.006876111 0.053715896 -0.024264734 0.16142307 0.038089044 0.035084113 -0.050996475 0.13956286
0.055193458 0.17787494 0.03619273 0.0709462 -0.089925125 -0.03500888 0.0154102845 0.040222745
0.058763992 0.16131018 0.07939153 0.05849444 -0.06421983 0.04049536 0.079920895 0.47805437
-0.0777228 -0.015630849 0.07816472 0.10419193 0.06393573 -0.042154416 -0.0563074 -0.10050345
-0.017555492 0.27186692 0.035793975 -0.026797438 -0.0018305907 0.16568357 0.058487806 -0.10129502
-0.038516723 0.1604744 -0.12608474 0.13805199 -0.12806566 0.2206021 -0.24521308 -0.023933683
0.048462626 0.03997619 0.08137751 -0.044278145 0.078733 0.13588808 -0.017974945 -0.040581632
0.10249075 0.043224856 -0.06545998 0.041543376 -0.00725005 -0.111887366 0.15376294 0.07094781
0.059654314 0.029955216 -0.40635827 0.18548408 0.04058604 0.062683664 -0.046501048 0.005155967
0.063003324 0.14367025 0.31609726 0.047076672 0.04391314 -0.051121414 -0.022634154 0.052454695

fc3.bias f4 [64]
00000000: 76ab 1dbd 6806 b93e 2aff b83e e692 113e
00000010: ebcd e93d 7a1f e8bc e6ab f83e 710b 29be
00000020: 0fea 283e 42cf df3e 8292 42bb 1ec0 f33e
00000030: 71ab 3a3c f9f7 343e a3f6 d8bd 1450 92be
00000040: 1da5 d83d 7a76 cd3d 6e56 333d 84ca cd3e
00000050: 396c 36bd c474 223e 481f 14be 1a9e dd3e
00000060: 8886 193e 165f bcbd 9d0b 8abd 532d 293e
00000070: cccd ca3e 7966 b13e 3fbb 423e 7401 86bd
00000080: b4a6 a6bd 0eb2 1bbe 242a 6dbe d541 dcbd
00000090: e2d6 933d 360b 1fbe ec69 94be 4a47 47be
000000a0: 6028 bebd 5446 aa3e 9a47 993d 361a a03d
000000b0: 4610 f23a 1a3a ed3e 3cb5 dbbd 40a5 113d
000000c0: db82 dfbd 7e3b ea3e 7d20 4a3e 5d5f 793d
000000d0: 3e1a f83e 72df 0b3e 03b9 3dbd 8860 aabd
000000e0: aabd f83d c27d ccbd 0753 7d3c 6130 df3c
000000f0: 2f5e 0d3e 3cd9 853e 24f1 1d3d 7dd0 493e
-0.038493596 0.361377 0.36132175 0.14216194 0.11416229 -0.028335322 0.48568648 -0.16508271
0.16495536 0.43712813 -0.0029689376 0.4760751 0.011393414 0.17672719 -0.10593917 -0.2857672
0.10578368 0.10032363 0.043783598 0.4019357 -0.044536803 0.15864855 -0.14465058 0.43284684
0.14992726 -0.09197824 -0.06740496 0.16521196 0.39610136 0.34648493 0.19016741 -0.06543246
-0.08137265 -0.15204641 -0.23160607 -0.10754744 0.0721872 -0.1553162 -0.28987062 -0.19460788
-0.09285045 0.3325678 0.0748436 0.07817499 0.0018467985 0.4633339 -0.10727927 0.035557985
-0.109136306 0.45748514 0.19738956 0.06088196 0.4845752 0.13659456 -0.04631902 -0.08319193
0.121455505 -0.09984924 0.01546169 0.027244749 0.1380546 0.261423 0.038560048 0.19708438

fc4.weight f4 [4, 64]
00000000: 2e23 c63e 4613 bc3d 8ec3 383e 7b3d 6b3e
00000010: 088b 8e3e be52 04bd cf1a 7c3e 6ba6 afbe
00000020: 570e 203e a19c 6c3e 445a d53c 728a 283e
00000030: 19ae d7be 540b 503e 63cc a1bd dcbd 34bd
00000040: 09b5 0e3e 8334 ba3d 54f3 a6be 6dde 103e
00000050: 4f64 0c3d eb28 1e3e a14e 84be 4abd 003e
00000060: 8bb7 293d 9411 17bd 2e3a 1bbe 41ca 2e3e
00000070: 2527 f73d 843b 663e 3963 453e 2d04 87be
00000080: 0d72 583e e62f 4bbd 5009 1abe d0e2 5b3b
00000090: 12b7 543e e96c 85bd 915f 61be 3546 c3be
000000a0: ee60 e3bd 2fcf 3b3e 4832 573e f38d febe
000000b0: a516 d93e 7511 573e 2516 63bc a389 8c3d
000000c0: 4a14 1fbd 9cfa 5a3e 2e2e 2dbf e451 ee3e
000000d0: a1c5 433e 7c72 2e3e 59c6 a0be f929 98bd
000000e0: 0b15 963c 139b 3b3d 6e76 4d3d 303b 6a3e
000000f0: 02a4 0a3e 5684 563e 18ca 16bf b7cf 4bbf
00000100: 221b e33e 02fd 633e edae 1e3d b8ab dd3d
00000110: f3a9 8c3d 183d 443e a61b ca3d 6fb0 42be
00000120: 9cf5 9e3d 9573 543e fabb e13b 673c ff3d
00000130: ee0c 133c e7ce 693e 8ef4 68bd 9a69 d2bd
00000140: dfa3 833e 0f20 c9bb 56ce 273e 3e07 7c3e
00000150: 887b 4ebc d693 523e c669 46be 9144 593e
00000160: 3460 b23d dfea 7cbd bbde 783e 8d0b 053e
00000170: f7dd 203e 810b 343e 896c c93c c0d4 bfbe
00000180: 32b1 883e b36c 8bbe cfec 14be 7072 4f3d
00000190: 0669 9b3e 243b 80be eca4 1fbe 26e4 5ebe
000001a0: 588f c5bd ecc4 e33d 02bd b43e 85c9 453e
000001b0: 81aa 153e 9573 053e ff8e 7fbd f4d1 5fbe
000001c0: 58c2 89bc 0d12 6d3e f604 9b3d 0f76 9e3e
000001d0: 4883 5e3e 2134 153e 3093 0fbe 6909 9f3d
000001e0: 1932 793e a9aa 8dbc 6f41 fa3d 8be1 de3d
000001f0: ffbd f23d 1c61 6c3e 5591 693e 0f24 8bbd
00000200: 5741 8c3d 294d 233e 7888 c93d adef 64bd
00000210: 4ab6 353d 5286 0abe 8302 703e f3b4 38be
00000220: 8d69 753e 6a57 cf3d 2d3d 103c e76c 543e
00000230: dd09 a7be 5d37 073e c7c4 03bf 00ed fabe
00000240: bae9 fa3e bcbe 5b3e c253 bf3e 6291 8e3e
00000250: 3acc 563d ef2c 3a3e b0d1 f7bd fafb 553e
00000260: 0d82 413e cf07 dd3a c581 b8be f9bd f4bd
00000270: 4afc 303e 6151 9b3d f686 713e 725f f5bd
00000280: bb89 c3be bbbc 883e 94b7 a03d 9b6d 84bd
00000290: 4c41 42be ec86 b93d 14f0 cdbe 2555 19be
000002a0: 2a8d bcbd bb33 d03d c4a1 b73e 5d3e 89be
000002b0: d35e 8fbe 532b 883e a60e dd3c 3f86 cdbe
000002c0: cec9 8b3e 5ce0 ab3d 9c49 4d3c c366 a13e
000002d0: 4374 043e 9f69 abbd 4559 a1be e379 343e
000002e0: 5f65 333d 0aba 893d 3cb5 133e 4f65 42be
000002f0: 5127 eb3d 7ec2 853d 2c0a 57be a529 893e
00000300: cbbc b63e 4572 003e 1c88 5e3e 690f 21be
00000310: a1de a13e c838 9a3e 22eb 653e 9ef4 23be
00000320: 187c f8bb 218a d53d 1f44 8a3e 0cc8 723e
00000330: 510a 8fbd a4f7 d63d a3dc 673e 105a 2abe
00000340: 7df5 5f3e 3a4f 1a3e eb7b 3dbf d2d2 6f3d
00000350: c8cb 883c 977a 1d3e b484 d3be 6e68 783e
00000360: 51ec 323e c220 ed3c c242 083f c8e5 103e
00000370: da27 4b3e 65eb a33d 4428 9c3e c2a0 e73d
00000380: 75e5 a4be 9ec2 8d3e ee04 d5be 7ba0 efbc
00000390: 2423 b4be 108d a3be cd02 a5be 53cd 05bd
000003a0: 4818 cebd d131 7b3d 7473 9ebe 48a1 2dbd
000003b0: b98d b5be 0da0 373e 4981 07bd ca09 cdbe
000003c0: 7d44 033d e497 5f3e b810 0fbf b70f 053e
000003d0: 2fb8 553e 2ce2 793d b751 05bf 83d6 383d
000003e0: fde4 df39 5c4e f23c c23a cb3e 92ba 553d
000003f0: 88d3 133c b3a2 6a3e abee 393d ff26 623e
0.38698715 0.091833636 0.18043348 0.22972672 0.27840447 -0.03230547 0.24619602 -0.34306654
0.1563047 0.23106624 0.026044019 0.16459063 -0.42125013 0.20316821 -0.07900312 -0.044126377
0.13936247 0.09092047 -0.3260752 0.14147349 0.03427535 0.15445296 -0.2584124 0.12572208
0.041434806 -0.036882 -0.15158913 0.17069341 0.12068013 0.22483641 0.19276132 -0.26370373
0.21137257 -0.049606226 -0.15042615 0.0033551939 0.20772961 -0.065149136 -0.22009112 -0.381395
-0.11102472 0.18340753 0.21015275 -0.49717674 0.4240009 0.21002753 -0.01386026 0.068621896
-0.03883771 0.21384662 -0.6764859 0.46546853 0.19118358 0.1703586 -0.31401327 -0.07429881
0.018320581 0.045802187 0.05016177 0.2287414 0.13539127 0.2094892 -0.5890212 -0.7961382
0.44356638 0.22264484 0.03874104 0.108237684 0.06868353 0.1916393 0.09868555 -0.19012617
0.0776169 0.20747216 0.0068888636 0.12462693 0.008975251 0.22832833 -0.05687385 -0.10274048
0.2571096 -0.006137855 0.16387305 0.24612138 -0.012602694 0.20564207 -0.19376287 0.21217562
0.087097555 -0.061747428 0.24303715 0.12992688 0.15709673 0.17582513 0.024587886 -0.37467003
0.2669769 -0.27231368 -0.1454346 0.050646245 0.30353564 -0.2504512 -0.15590256 -0.21766719
-0.09646481 0.11121544 0.35300452 0.19315155 0.14615823 0.13032372 -0.06239223 -0.21857435
-0.016816303 0.23151417 0.075693056 0.30949447 0.21729767 0.14570667 -0.14020991 0.07765467
0.24335517 -0.017293291 0.12219512 0.10882863 0.11852645 0.2308392 0.22809346 -0.06793987
0.068484 0.15947403 0.098404825 -0.055892635 0.044363298 -0.13527802 0.23438458 -0.18037777
0.23966046 0.10124095 0.008803648 0.20744668 -0.32624713 0.13204713 -0.51472133 -0.49008942
0.49006444 0.21459478 0.3736859 0.27845293 0.05244086 0.18181203 -0.121005416 0.20896903
0.18897267 0.0016863289 -0.36036506 -0.11950297 0.1728374 0.07583881 0.2358664 -0.119810954
-0.38191018 0.2670649 0.07847515 -0.06466218 -0.18970221 0.090589374 -0.40222228 -0.14973886
-0.092066124 0.10166117 0.35865605 -0.26805392 -0.28002033 0.26595554 0.026984524 -0.40141484
0.27302402 0.083924025 0.012529757 0.31523713 0.12934975 -0.08369755 -0.3151342 0.17624621
0.043797847 0.06724937 0.14424604 -0.18983959 0.114821084 0.06531237 -0.20999974 0.26789585
0.35690913 0.1254359 0.21731609 -0.15728535 0.31615165 0.30121446 0.22452977 -0.16011283
-0.0075831525 0.104267366 0.27005097 0.23709124 -0.069843896 0.104964525 0.2264276 -0.16635919
0.2187099 0.15069285 -0.7401721 0.058550663 0.016698733 0.15378796 -0.41312182 0.24258587
0.1747296 0.028946284 0.53226864 0.14150155 0.19839421 0.08003882 0.3049947 0.11309959
-0.32206312 0.27687544 -0.41605324 -0.029251328 -0.3518306 -0.3194356 -0.322287 -0.032666516
-0.10063225 0.061326806 -0.3094746 -0.042390138 -0.35459688 0.17932148 -0.03308228 -0.4004653
0.032047737 0.21835285 -0.55884886 0.12994276 0.20871042 0.06100671 -0.5207781 0.04512645
0.00042704484 0.02957838 0.39693266 0.05217988 0.009022601 0.22913627 0.045393627 0.22085188

fc4.bias f4 [4]
00000000: 2559 693e 9f69 713e 2e28 9e3e 73f1 683e
0.22787912 0.23575447 0.3089003 0.22748356
